…
                accuracy                           0.74        27
            macro avg       0.73      0.74      0.73        27
            weighted avg       0.75      0.74      0.74        27



Model: "generator"
__________________________________________________________________________________________________
 Layer (type)                   Output Shape         Param #     Connected to
==================================================================================================
 z_input (InputLayer)           [(None, 4)]          0           []

 class_labels (InputLayer)      [(None, 2)]          0           []

 concatenate_1 (Concatenate)    (None, 6)            0           ['z_input[0][0]',
                                                                  'class_labels[0][0]']

 dense_5 (Dense)                (None, 512)          3584        ['concatenate_1[0][0]']

 leaky_re_lu_3 (LeakyReLU)      (None, 512)          0           ['dense_5[0][0]']

 dropout_1 (Dropout)            (None, 512)          0           ['leaky_re_lu_3[0][0]']

 dense_6 (Dense)                (None, 16)           8208        ['dropout_1[0][0]']

 leaky_re_lu_4 (LeakyReLU)      (None, 16)           0           ['dense_6[0][0]']

 reshape (Reshape)              (None, 2, 8)         0           ['leaky_re_lu_4[0][0]']

 softmax (Softmax)              (None, 2, 8)         0           ['reshape[0][0]']

 lambda (Lambda)                (None, 8)            0           ['softmax[0][0]']


Model: "discriminator"
__________________________________________________________________________________________________
 Layer (type)                   Output Shape         Param #     Connected to
==================================================================================================
 class_labels (InputLayer)      [(None, 2)]          0           []

 discriminator_input (InputLaye  [(None, 8)]         0           []
 r)

 dense (Dense)                  (None, 4)            12          ['class_labels[0][0]']

 concatenate (Concatenate)      (None, 12)           0           ['discriminator_input[0][0]',
                                                                  'dense[0][0]']

 dense_1 (Dense)                (None, 512)          6656        ['concatenate[0][0]']

 leaky_re_lu (LeakyReLU)        (None, 512)          0           ['dense_1[0][0]']

 dropout (Dropout)              (None, 512)          0           ['leaky_re_lu[0][0]']

 dense_2 (Dense)                (None, 256)          131328      ['dropout[0][0]']

 leaky_re_lu_1 (LeakyReLU)      (None, 256)          0           ['dense_2[0][0]']

 dense_3 (Dense)                (None, 128)          32896       ['leaky_re_lu_1[0][0]']

 leaky_re_lu_2 (LeakyReLU)      (None, 128)          0           ['dense_3[0][0]']

 dense_4 (Dense)                (None, 1)            129         ['leaky_re_lu_2[0][0]']

 activation (Activation)        (None, 1)            0           ['dense_4[0][0]']
















 ACCURACY INCREASED, SYNTHETIC CANDIDATE ADDED
NEW ACCURACY: 0.6296296296296297
ctx-lh-caudalanteriorcingulate    -1.882529
ctx-lh-isthmuscingulate            0.628518
ctx-lh-posteriorcingulate          0.079569
ctx-lh-rostralanteriorcingulate   -1.646095
ctx-rh-caudalanteriorcingulate    -1.659732
ctx-rh-isthmuscingulate            1.154043
ctx-rh-posteriorcingulate          0.636048
…
